p1_navigation/misc/trained_agent_parameters.pth (torch_old, 28426 bytes, 6 tensors)

fc1.weight f4 [64, 37]
00000000: 9444 75be 060a 693e d3cd 56be d428 dbbb
00000010: e1c6 73be 6c0c 8ebe afcb f03d 2f32 ad3d
00000020: c4a5 97be 3f1e ba3e c0d9 e0bd df19 cf3c
00000030: c972 32bc 21e1 06be b281 27be 9f30 adbd
00000040: 14ab 7b3d b637 913d 1b09 1c3e bcf7 50be
00000050: 5e80 dabc e6e6 1ebd 80d7 283d 4e97 b43c
00000060: ca39 3cbe 4615 4e3d df36 11bd f328 61bd
00000070: 628b 51be 1097 9a3d aa39 f93d 4cf4 febd
00000080: 5eef b53d 95d4 ecbd 3874 10bc a739 a03d
00000090: 7455 0f3d cb1b f2bc 69b6 2c3d 262b 02be
000000a0: 9eac 2cbe 1f44 00bf 321d c3be cb83 473e
000000b0: acf4 123e 628a 6bbd 4a4f b4bd 5b78 49be
000000c0: 9cc0 203d aab3 e6bd 670b 433e de23 643c
000000d0: c91e 8fbe 24d1 083e db79 2e3c e051 9dbe
000000e0: 2065 d13d 3d10 d2bd e4e6 0cbe aa37 f43d
000000f0: 454f f43d 86fe d63e 15a7 4fbe 1c6a 8a3d
00000100: d5cc 0c3d 967e 643d 7b62 4d3e acb1 6c3d
00000110: aaa4 593d 5672 d63c 4b2a 58be 88ca c23d
00000120: ae89 063d 3d06 af39 92de a43e 525b 8abd
00000130: 4d70 223e 4b1f 60be 1bd6 53bf 79de cbbd
00000140: 78ce 843d 7fbf 81bd 4c89 b23d 0406 0f3e
00000150: 2dd9 ee3d 9774 f4bd e81a 13bd ca6d a6bd
00000160: ff1d 04be 2d25 3c3e 158d a13d ed9d 073e
00000170: aa64 f53b 58f1 acbe a439 fd3c 6193 173e
00000180: 5602 573e 4c33 b1bd 13fb 84be 155a 40bd
00000190: 49ae a8bb 6f04 213e 664a 4d3c 824d 823e
000001a0: a660 e2bc c4eb 703d 6b97 143e d5a7 793d
000001b0: b778 f43d 17b6 debc fa4c 84bb 552a 15be
000001c0: b869 083d cac3 eebd f99c 8f3d 9a87 d0bd
000001d0: 0163 303e 95c2 cfbd da61 253e 53d1 76be
000001e0: cd4c adbf adbe 9bbd d064 9fbc 7961 553d
000001f0: 7006 093e eb8d 8ebc f184 773d 72da d0bb
00000200: d2bf ea3c 475b f53b 25f6 a63d c12e 833c
00000210: 339a 113a d9aa 0d3e db5d 35bd 9fc0 973e
00000220: 27f5 afbd 86fd dbbd 3907 db3c 1833 67be
00000230: 47f4 e1be 991f 923b f30c 9b3e 2fc5 8a3d
00000240: 108b 4f3d 540f fdbe 93a1 623d 27b9 793c
00000250: c682 9e3d f94e 42bd c9c1 193c 787f 3c3b
00000260: 96aa 823e c76c 55be 9cb1 38bd 77a6 723e
00000270: a583 313b 7c0c 863e 9d77 41bd ed78 fbbc
00000280: 340d 0c3e 368e 183d aa91 d1bb ec13 fabd
00000290: 8b6b 73be 90a0 79bc c42c 333e ce1e 8d3e
000002a0: 7703 eebd e414 80bc d510 9dbc 2af4 18be
000002b0: acb1 573e bc12 a33d 2a13 0b3d 2a7f 3cbd
000002c0: 1e3b e3bd 7ca3 463d a27d 5ebd fa55 e3bc
000002d0: 15e2 103d 87b7 c4bd 33d6 733d 0b16 a33c
000002e0: d672 7dbd 9d41 7a3e 6b9f 893c 2239 7cbc
000002f0: 3139 bf3d a3e2 82be 2b40 073d a498 8abd
00000300: ed5e 073c 4a19 353e f143 323e 9ed2 833d
00000310: 77fb 243d 9bba c03d 27be 343d 759a df3c
00000320: d43f 1abe 9676 64bd 08cf 623d c1e4 113e
00000330: 1b38 6b3e b7aa 803e 8b4a 4a3e 047e 15bc
00000340: 4458 13be 4f20 61bf fd9f 773e 571f 1d3e
00000350: a57b 5dbc b3e2 01be 23f9 b5be 3855 eb3d
00000360: 6763 98bc c852 643d b78b 063e f114 1b3e
00000370: e837 8cbc f574 b23b a734 9fbd b3f6 50bd
00000380: 623d 6abd ac5f a8bd e870 5ebd 6f33 b93b
00000390: 3293 953d 6f3f d43d f6db c83d b6a3 a43d
000003a0: f647 723d 0c49 12bc 3157 00bd b3c0 88bd
000003b0: 28f7 29be ea78 253d 6941 1e3e 32bc 983d
000003c0: 9b12 f63d b5a7 ed3d 8c67 723d 3887 313d
000003d0: 0e3e 3d3d 22ab 483d 4757 a73d 721d ba3e
000003e0: 9472 c6be 7389 93be 7092 b0be a033 e5bf
000003f0: 40e6 9d3d 1f64 483d 7e93 b13d 0344 173e
-0.23951942 0.2275773 -0.20976953 -0.0066882167 -0.23806335 -0.27743852 0.117575996 0.084568374
-0.29618657 0.363512 -0.109790325 0.025280891 -0.010891625 -0.13171817 -0.16358069 -0.08456539
0.06144245 0.07090704 0.15237848 -0.20407003 -0.026672538 -0.03879442 0.04122114 0.022044804
-0.1838142 0.050313257 -0.03545272 -0.054970693 -0.20463327 0.07548344 0.12169202 -0.1244894
0.08883546 -0.11563984 -0.008816771 0.07823496 0.034993604 -0.029554268 0.042166147 -0.12711772
-0.16862723 -0.50103945 -0.38108212 0.19483869 0.14351147 -0.05750502 -0.08804186 -0.19674818
0.039246187 -0.11264737 0.19047318 0.013924567 -0.27953175 0.13361031 0.01064917 -0.30726528
0.10224366 -0.102570035 -0.13759953 0.119246796 0.11929182 0.4199106 -0.2027858 0.0675852
0.03437503 0.055784784 0.20057099 0.05778663 0.05313555 0.026177566 -0.21109883 0.09511286
0.032846145 0.0003338325 0.32201058 -0.06755699 0.15863152 -0.21886937 -0.82748574 -0.09954543
0.06484693 -0.06335353 0.087175936 0.13967139 0.11662517 -0.119363 -0.03591433 -0.08126409
-0.12902068 0.18373556 0.078882374 0.13243838 0.0074888067 -0.3377788 0.030911274 0.14802314
0.20996985 -0.08652362 -0.25972804 -0.04696091 -0.0051477295 0.15724348 0.012529945 0.2544976
-0.027633976 0.058818594 0.14510886 0.060951073 0.11937087 -0.027186437 -0.0040374966 -0.1456693
0.033303946 -0.116584376 0.07012362 -0.10182114 0.17225267 -0.101445355 0.16150609 -0.24103288
-1.3539063 -0.07604728 -0.01945725 0.05209491 0.13381362 -0.017401656 0.060429517 -0.006373697
0.02865592 0.0074876877 0.08152417 0.016013505 0.00055542885 0.13834704 -0.04427896 0.29639146
-0.08591681 -0.10741715 0.026736842 -0.22578084 -0.4413168 0.004459333 0.30283317 0.06775891
0.05066973 -0.49425757 0.05532987 0.015241898 0.07739787 -0.047438595 0.009384581 0.00287625
0.25520772 -0.20842277 -0.045091256 0.23696314 0.0027086523 0.261814 -0.047233213 -0.03069731
0.13676912 0.037244998 -0.0063955383 -0.12210831 -0.23771493 -0.015236035 0.17497545 0.27562565
-0.116217546 -0.015634961 -0.019173065 -0.14936891 0.2106387 0.07962558 0.033953823 -0.04601971
-0.1109526 0.048495755 -0.05431903 -0.027750958 0.03537186 -0.096053176 0.05953045 0.019907972
-0.061877094 0.24439092 0.01679965 -0.015394481 0.0933708 -0.25563535 0.03302018 -0.06767395
0.008262378 0.17685428 0.1740873 0.064366564 0.040278878 0.09410592 0.044126656 0.02729533
-0.15063411 -0.055777155 0.05537322 0.14247419 0.22970621 0.25130245 0.19754998 -0.009124283
-0.1438914 -0.87939924 0.24182124 0.15343986 -0.013518249 -0.12684135 -0.3554164 0.114908636
-0.018602086 0.05574301 0.13139234 0.15144707 -0.017116502 0.0054460713 -0.077737145 -0.05101652
-0.057187445 -0.08221373 -0.054306895 0.0056518833 0.07303466 0.103636615 0.09807579 0.08039038
0.05915066 -0.008928549 -0.031333152 -0.066773795 -0.16598189 0.040398516 0.1545464 0.074577704
0.120152675 0.11604253 0.05918078 0.043341845 0.046201758 0.04899133 0.08170944 0.3635059
-0.3875929 -0.28815803 -0.34486723 -1.790638 0.07709932 0.048923608 0.0867071 0.14772038

fc1.bias f4 [64]
00000000: f6ed 74be 07e3 953d c4cc b0bc c553 f0bb
00000010: 8e8c 1dbd af7f f93d 8e5d 173d 17cb 95bd
00000020: 62d2 ae3d 6476 acbc c69b 543e 96e9 7ebd
00000030: 8267 91bd 0284 1d3c 7d83 a03d ebc2 b4bc
00000040: 8c0a c23d 2f8e 0fbd 8a2a d4bc 7ea5 0f3e
00000050: 33ae 073e f9a2 28be f9dc a03c 105e 803d
00000060: 0018 473d 271e 80bd 2b35 943d eed0 c13c
00000070: c634 acbc a0ed a0bd edee 45bd 3743 fdbb
00000080: 5699 c5bc 7365 06bd c147 473c 0c8c 033e
00000090: 9c23 50be 0066 033e a8a5 ddbc 711f ac3d
000000a0: 268a 17bd b594 fc3d 9933 c53d 8f74 203e
000000b0: 50a1 bcbb c441 bdbd 2748 9ebc 20f8 9b3d
000000c0: 0eba 79bd 838e 153e fd18 273e 4239 853e
000000d0: 7866 6c3d 0164 09be a1f3 2bbd ede6 1d3d
000000e0: 41d7 a23d 265f b53d dab1 50bd 8d95 40be
000000f0: 039c 2f3e 3692 b13d 93de 9bbd b32c 1bbe
-0.239189 0.07318693 -0.021582015 -0.007334205 -0.03846412 0.12182557 0.036954455 -0.07314127
0.08536221 -0.021052547 0.20762548 -0.062234484 -0.07099821 0.009613993 0.078375794 -0.0220656
0.09474668 -0.035047706 -0.02589919 0.14027974 0.13250045 -0.16468419 0.019636618 0.06267941
0.048606873 -0.06255751 0.072367035 0.023659196 -0.021021258 -0.07857823 -0.04832356 -0.00772896
-0.024120968 -0.032811593 0.012163104 0.12846392 -0.20326084 0.12831879 -0.02705653 0.084044345
-0.036996983 0.12333051 0.09628982 0.15669464 -0.0057565346 -0.092410594 -0.019321514 0.076156855
-0.06096845 0.14605145 0.16318126 0.26020247 0.05771491 -0.13417055 -0.04198039 0.038550306
0.07951213 0.08856039 -0.050950862 -0.18807049 0.17149357 0.08670466 -0.07610812 -0.1515377

fc2.weight f4 [64, 64]
00000000: 27e7 05be ccf9 76be 96d5 80bd 369c 9bbd
00000010: 3241 d13c a87c bf3d d339 1c3f 812d f3bd
00000020: 04da 92bc 2095 0fbe cdcf 00be 5040 f43c
00000030: 2339 00bf de54 73bc abfc b83c f6cb 9c3d
00000040: 4d49 1abe 3f30 27bd 14ed a3bc a6bf 39be
00000050: 8a5c d1be 73b2 84bd e372 483e 7f97 8e3d
00000060: dd39 d4bd eb81 7a3e 49d0 a63e 4348 be3c
00000070: 96d1 48bd 6eff 88bd 5c76 b7bd d5e6 4fbc
00000080: 0d60 5fbc 084e 813d 279f 793e 2768 90be
00000090: 766a 48be bbe0 f83d a103 083e e626 163e
000000a0: 8039 473e 7072 95bc a482 2ebd d7c9 423e
000000b0: a8d0 39be 640c 68bd 9d3e 10bf 4a06 7cbd
000000c0: e998 6abd 6650 153d 213f ca3e 4d75 993d
000000d0: 9834 7dbe 4ca0 9abe 1fd2 ccbd 554d 3b3d
000000e0: a229 a53d f2c9 0a3d ea79 153e c99a b43b
000000f0: dd2b 10bd 6191 633e 693d b9bd f085 2cbe
00000100: 1856 36bc f03d 163d 7d45 8f3d 66fb 6e3d
00000110: 1883 76bd a287 f63d 4b90 ed3d db4c 773e
00000120: facf 073e cdaa 093e 90de 0e3e d05e c9be
00000130: ea81 733e 5f40 8f3d 0dad b53d efd6 a4bc
00000140: b4eb 3f3d 3273 9abd 825f 1dbe a6bd 403d
00000150: 9dee 2b3e 1856 20be 76ee cb3b 1c50 6abd
00000160: dc3c 3c3d 363f 4abe 8d13 d83d 4883 73be
00000170: a808 95bd d02c 293c 67e9 b53d df10 9d3d
00000180: 1af0 2dbe 79bb 5c3d 5d80 ab3d e375 133e
00000190: 5736 0c3e 3639 c3bd bdd5 303e 352d e73a
000001a0: 0db1 5b3e d613 f43c 052c 783e be80 2dbd
000001b0: a35e e9bc ba8a 023e 2d7d e83e ca41 b2bc
000001c0: 7560 3abc b72c 983c 426a 8a3d df70 013d
000001d0: a383 ed3d b673 dbbe 66c0 9ebd 87b6 f2bd
000001e0: 51c7 943e d22a a63c cab1 4c3c 57a9 d9bd
000001f0: 5b92 1a3e 5ea5 f2bc ebd9 d2bc e5fa 0fbe
00000200: f090 72bd ff93 303e 1a11 593c 53d5 86be
00000210: ac33 593d 3473 193e 0616 613e e604 ee3d
00000220: 0aec 433d 1dc1 acbd 419a 153d ff13 b7bd
00000230: 299c 04bd ca5a 503d 7f88 d7bd 178e 243c
00000240: d61d ffbd 11c0 8dbe 48e2 0ebe 904e 42bd
00000250: 1993 c2bd f272 1cbe 84e6 08be 0bc1 ef3d
00000260: 19e4 2abe ace7 3c3e 0cd6 fe3d 6fe9 04bc
00000270: e25c 8bbd 56c4 b3bd f514 02be efdc 38bd
00000280: fed1 3d3e af0b 26be 620c 873d eabb a6bd
00000290: c8d9 df3d 0e4d e33d 3065 003e 9a60 e539
000002a0: c412 d83d f774 26be 0f56 88bc 4ada 90bd
000002b0: dd13 81bd 3f48 73bd 3e8f 673e e13c 88bd
000002c0: 21af acbd a344 f8bd ea2b 17bd 4818 69bd
000002d0: 3655 a03d 266d b1bd f445 99be a732 603d
000002e0: 5f0e ed3d adcf 143e 2852 683d 9283 9fbd
000002f0: c6a4 243d af68 633e 4586 e9bd cfce cf3d
00000300: f4a7 413d c47d 3c3d 1e7e e73b 169e 863d
00000310: 56a5 ba3d 6d40 083d cc19 d03d 3c25 253e
00000320: 90dc 833e 7c4b 0d3e 000c 4a3d a1e8 3ebc
00000330: 975a 9d3e 8f27 043e a4ff 25be 48bc 603e
00000340: abfb 6e3d f177 623c 3a80 6c3d 5b11 1a3e
00000350: c58a bc3c 6900 673d a902 b63d e830 2c3d
00000360: b514 7dbd 54bb 5a3e cbed 1abd 66c1 813c
00000370: 35f2 ccbd e588 103e e188 ca3d c830 2f3b
00000380: f3c2 eb3d a9a6 c7bc a48b 693d 4f18 e23d
00000390: f52e 0dbb ecfd ca3d d265 fe3d 4e37 41bd
000003a0: 1cb6 8dba 8e69 9d3c 1154 cb3d 7dae ad3d
000003b0: d0e5 a1bc 2fad a6bd f5f1 3a3e 49fd ad3d
000003c0: c324 853d d89b 29bd 930e 41bd 7e0f a93d
000003d0: 357a 273e 3e08 6e3c f960 dbbc 475e 8ebc
000003e0: eaa4 3c3e 9142 283e 2252 103e 27a7 ddbd
000003f0: c053 1e3e 260a a53d 0e9b 433d 4e6c a8bd
-0.13076459 -0.24118727 -0.06290738 -0.07598154 0.025543783 0.09349948 0.6102573 -0.118739136
-0.017926224 -0.1402173 -0.1257927 0.029815823 -0.50087184 -0.014851777 0.022581419 0.0765609
-0.15067025 -0.040817495 -0.020010509 -0.18139514 -0.40890914 -0.06479349 0.19575076 0.06962489
-0.10362599 0.24463622 0.32580784 0.023227816 -0.049028 -0.06689344 -0.08958122 -0.012689312
-0.01363374 0.063137114 0.24377118 -0.28204462 -0.19571862 0.12152239 0.13282634 0.14663276
0.19455528 -0.018243045 -0.042605057 0.19022308 -0.18146002 -0.05665244 -0.5634554 -0.061529435
-0.057274733 0.036453627 0.3950129 0.074930765 -0.24727094 -0.30200422 -0.10001015 0.045728046
0.080645815 0.033883996 0.14597288 0.005511616 -0.03519808 0.22223426 -0.09044916 -0.16847968
-0.011128925 0.036680162 0.06995676 0.05834522 -0.060183614 0.12037589 0.11599787 0.24150412
0.1326293 0.13444062 0.13952088 -0.3933015 0.23780027 0.069947 0.088708974 -0.02012202
0.046855643 -0.07541503 -0.15368465 0.047055863 0.16790242 -0.15657842 0.006223495 -0.057205305
0.045956478 -0.19750676 0.10550604 -0.23780549 -0.07277042 0.010325626 0.088824086 0.076692335
-0.16986123 0.053889725 0.08374093 0.14400439 0.13692604 -0.095323965 0.17269035 0.0017637374
0.21454258 0.029794615 0.24235542 -0.042359106 -0.02848751 0.12748232 0.45408002 -0.021759886
-0.011375536 0.01857601 0.06758548 0.031601783 0.11597373 -0.42861718 -0.07751541 -0.118512206
0.29058316 0.02028409 0.01249356 -0.10628002 0.15094893 -0.029619869 -0.025738677 -0.14060552
-0.059220254 0.17243956 0.013248706 -0.26334628 0.053027794 0.14985353 0.21981058 0.11622028
0.047832526 -0.08435271 0.03652406 -0.08939361 -0.03237549 0.050867833 -0.105240814 0.0100436425
-0.12456863 -0.27685598 -0.13953507 -0.047438204 -0.09500713 -0.15278223 -0.13369185 0.11706742
-0.16688575 0.18447751 0.1244317 -0.0081122955 -0.06804825 -0.087776825 -0.12703307 -0.045132574
0.18537137 -0.16215394 0.06594159 -0.081413105 0.1093021 0.110986814 0.125386 0.00043750257
0.10550454 -0.16255556 -0.016642598 -0.07072885 -0.06302617 -0.05939507 0.22613236 -0.06652237
-0.08431841 -0.121224664 -0.036907114 -0.056907922 0.07828753 -0.086633965 -0.29936182 0.054735806
0.11575007 0.14532347 0.056718975 -0.07788767 0.040196203 0.22207902 -0.11402563 0.101468675
0.047279313 0.046018377 0.007064595 0.06573121 0.091135666 0.033264566 0.1016117 0.16127485
0.25754213 0.13798326 0.04932785 -0.011652143 0.30733177 0.12905715 -0.162108 0.21946824
0.058345478 0.013822542 0.057739474 0.15045683 0.02301539 0.056396876 0.08887226 0.042038828
-0.061787326 0.21360523 -0.037824433 0.01583929 -0.10007135 0.14114721 0.09889389 0.0026731957
0.11511793 -0.024371462 0.057017937 0.11039793 -0.002154288 0.09911713 0.124217644 -0.047171883
-0.0010811719 0.019215371 0.09928144 0.084805466 -0.019762903 -0.08138501 0.18256362 0.08495576
0.06501152 -0.04140839 -0.04713304 0.08254908 0.16355212 0.014528332 -0.026779639 -0.01737894
0.18422285 0.16431643 0.14093831 -0.108228974 0.15461636 0.08058576 0.047755294 -0.082237825

fc2.bias f4 [64]
00000000: cf85 24bd 4d94 f23d 7525 ed3d 1db2 9c3e
00000010: 9433 84bd 10c1 1cbd 88af 843d 847f c73d
00000020: 8344 00be 849f 71bd 0b63 08bd 145b 23be
00000030: 7112 de3d 4fd5 cd3d 6b31 92bd cfa6 01be
00000040: e71d a03d b707 6b3e 6a88 ecbd 69bb 29bd
00000050: 534b 0f3e c62e 543e badb 57be e5e8 29bd
00000060: ac18 d23c a7bd 2cbe 53c0 6a3e 3d7a d73d
00000070: 7945 283e 2989 8fbd dd6c 133e 6e23 18bd
00000080: c9c2 3ebd f62a c33d 3882 f73c b812 743c
00000090: 4479 c63e 1b8a c5bd 1e4e cbbc 3e2c 55bd
000000a0: f546 ed3b 7dd2 a03e 37e7 663e 74fe debd
000000b0: cc30 b03d 35b0 8d3d 5bef 073d 1508 c43d
000000c0: 8d5e bbbd ddaf d6bd 9e23 0abe 7680 d2bc
000000d0: a9aa 943e b166 93bd c456 6a3d aca0 373e
000000e0: f103 afbd 3ba1 83bd dbad fb3d a498 fdbc
000000f0: 9bc3 163e 0aac b6bd 009f 7b3e 68b2 43bd
-0.040166672 0.118446924 0.1157941 0.3060464 -0.0645515 -0.038270056 0.064787924 0.097411186
-0.12526135 -0.058990017 -0.03329758 -0.15952712 0.10843361 0.10050451 -0.07138332 -0.12661289
0.078182034 0.22952162 -0.115494564 -0.041438494 0.13993578 0.20720968 -0.21079913 -0.04148187
0.02564653 -0.16869222 0.22924928 0.10521362 0.16432752 -0.07008583 0.14396997 -0.037143163
-0.04657248 0.095296785 0.03021346 0.014897041 0.38764393 -0.09645482 -0.024817523 -0.052044146
0.0072411248 0.3141059 0.22549139 -0.10888377 0.08603057 0.069183744 0.03318725 0.09571854
-0.091488935 -0.10482762 -0.1349015 -0.02569602 0.29036453 -0.07197321 0.057211652 0.17932385
-0.08545674 -0.06427237 0.1228902 -0.030956574 0.14723055 -0.089195326 0.24572372 -0.047777563

fc_out.weight f4 [4, 64]
00000000: c633 933e 84bd 0d3e d385 bc3d 8cca 013e
00000010: 41f6 bfbc afc2 2f3c 5e44 7dbd ab1e 993e
00000020: 9668 68be 3c1a efbe 6348 b4bd b4dd 30be
00000030: 15bf 09bf 7d8c f43e 4e20 c1be 5989 54be
00000040: 19b4 e13e 4a84 053e b38c 5bbd 121a 9e3d
00000050: a608 093e 5072 6a3d 1bed 06be 9b70 93bc
00000060: c93d 3c3c 5901 38be af37 183e fdab 253e
00000070: e27d 0c3e ccc2 81be d1cb d43d 49c3 27bd
00000080: d1c0 c13e 383e 983e e833 963c 54f3 be3d
00000090: 0f6a f03d 88a8 e6bb dd18 883c de0f 9a3d
000000a0: 69ae 453e ef07 2b3e 561a 503e c700 4cbe
000000b0: 7006 57be df0b bc3c 02c6 c63d 8282 e63d
000000c0: c65e fcbc 4b1a 483e 8a69 863d 0719 1d3e
000000d0: cf1d 163e 4c6a 05bf 2fef 843e f496 f93d
000000e0: 6da6 d23e 9b0e 54be d00d 6c3e a60f 76be
000000f0: 66b6 713d 2eb3 df3d d5a8 263e dcd8 853d
00000100: 7df9 8e3e 7145 ee3d 89a6 e83d 0422 1b3e
00000110: 85da a7bd b275 b73d 919e 02be 266e 9b3e
00000120: 5246 2dbe ba65 c83d 3e70 993e 1144 3bbe
00000130: 08a3 19be de92 853e 7d5b 97bd 5d20 85bd
00000140: bf8a ce3e a917 e43d 30f5 bbbc e66c 7a3d
00000150: 7e7f 01bf 8a44 9e3d 4167 42be ac19 ae3c
00000160: f124 9b3d fd9b 4bbe 6298 323d 937a e23d
00000170: 9cc8 4e3e aafe 3bbe 67e3 b33c e295 3dbe
00000180: e01b d53e 1a45 9e3e fd7e 923d 3fef 433e
00000190: b560 3e3e 2c36 ba3c 6054 58bd 5c3e 6e3e
000001a0: 973e d03d c38f 173e 6341 383e 53e4 20bd
000001b0: 026d 0ebe 3021 813c 5d17 b33d 9e1b 003e
000001c0: 9b91 37bd 40c8 e63e fe7b acbd 8e3d bc3d
000001d0: 4a7d cb3d 8567 c63d 7e57 aa3e 28bf 813d
000001e0: 1ad8 043f 7779 89be c15f 743e 8aba bcbd
000001f0: a00e 903d 2818 bc3d ec33 a33d c03f ca3d
00000200: 8c1c 9d3e 8090 633e 1425 1fbd 4993 b93d
00000210: b5b5 58ba c0f9 96be 8c6c e93d 541f 7e3e
00000220: ffbc 55be e493 94bc 0534 093e c950 4ebe
00000230: e83e 91be 0a55 123f 6783 1dbe 479c ad3c
00000240: 6352 933e c06c 543e 9046 ef3d e77f a13d
00000250: 1945 dabe 22fc 6d3e 2c38 04be 106c 46be
00000260: 7925 613d 663b 1bbe 47a5 b83d ffa0 cd3d
00000270: 991f 5c3e bcff 0cbd a719 c73d 9313 0ebe
00000280: 530e c13e 9400 f53e 5a91 a6bd a8c2 193f
00000290: cc0c 0b3e 4308 88be ff04 90be 3389 c23e
000002a0: a8a3 343e 860b eb3d 150a 333e ddcf 343d
000002b0: d13f bdbd 84d7 bb3d 082d 4bbd 8a4f d03d
000002c0: d0a3 903d 4148 ce3e d9e0 d6bd 67ee 493e
000002d0: 28da 0a3e 3345 86be 03cd 04bd 6fa9 163e
000002e0: 1dd4 433b d7e1 efbd 193e e93d df2b 84be
000002f0: f858 873d ed95 b0bd 3b62 0e3d 5e4a ce3c
00000300: 9e6a a33e 11f9 0c3d 1cdc 09be 3ba9 333d
00000310: 53fb 713d 957a 58be 9201 83bd 0abb 453e
00000320: 9929 09bc 2b4b e0bd 7b13 803e afed a0bd
00000330: 4f5c 5ebd d2f5 7f3e 8552 8ebe 50f2 ac3d
00000340: 6f78 133f 3831 183e a1dd 373e f647 5b3e
00000350: a714 e53d 17b1 0a3e ec2e d2bd d951 07be
00000360: 8420 7b3e 1acb c7be c451 f53d 007a 3b3d
00000370: d807 2e3e 4be5 a4bd bd9e 813c 0f8d 493e
00000380: 112f 7a3d dd0b 893e 1a24 c7bd 310e 3bbd
00000390: 858a 203e b13e e13d c1a3 e1bd 8781 44bd
000003a0: c659 313e cfd9 313e 1c77 bf3d 61c8 af3c
000003b0: 6937 85be 6865 f73d a157 663e 0246 173e
000003c0: 00f0 e8bd db1b 8fbd dc57 d3bd 8ea5 0e3e
000003d0: 70fa 2a3e 57ab ad3e 15a8 14ba aee3 7a3d
000003e0: 7731 523f 0eba 24be 0d66 b03e 46d7 51be
000003f0: 2e55 933d b97c a23d 554b ad3d cc65 533e
0.28750437 0.13841826 0.092052124 0.12674922 -0.023432853 0.0107275685 -0.06183278 0.2990621
-0.22696146 -0.46699703 -0.08802869 -0.17272073 -0.53807193 0.47763434 -0.3771996 -0.20755519
0.44082716 0.13038746 -0.053600978 0.07719816 0.13382205 0.057237923 -0.13176386 -0.01799803
0.01148934 -0.17969264 0.14864992 0.1617889 0.13719895 -0.2534393 0.103904374 -0.040957723
0.3784242 0.2973497 0.018335298 0.09323755 0.11738979 -0.0070391335 0.016613418 0.07522558
0.19304813 0.16702245 0.20322546 -0.19922172 -0.2099855 0.02295488 0.09705736 0.11255361
-0.03080691 0.1954128 0.06563099 0.15341578 0.14659809 -0.5211532 0.25963733 0.12186995
0.41142598 -0.20708697 0.23052144 -0.24029407 0.05901184 0.10922848 0.16275342 0.06535503
0.2792472 0.11634339 0.11359889 0.15149695 -0.08195976 0.089579955 -0.12755801 0.30357474
-0.16921356 0.09785028 0.29968446 -0.18287684 -0.15003598 0.26088613 -0.07390497 -0.065003134
0.4034023 0.11137325 -0.022944063 0.06113901 -0.5058516 0.077279165 -0.189847 0.021252476
0.075754054 -0.19883724 0.043602355 0.110585354 0.20193714 -0.18358865 0.02195902 -0.18514207
0.4162283 0.30912095 0.07153127 0.19134234 0.18591578 0.02273091 -0.05281484 0.23265976
0.10168188 0.14800934 0.17993693 -0.039280247 -0.1390877 0.015762895 0.087446906 0.12510535
-0.044816595 0.45074654 -0.08422087 0.09191428 0.09936006 0.096877135 0.33269876 0.06335288
0.51892245 -0.26850483 0.23864652 -0.09215267 0.070340395 0.09184295 0.07968888 0.098754406
0.30685842 0.22223091 -0.03885372 0.090612955 -0.00082668226 -0.2948742 0.11397657 0.24816638
-0.20872878 -0.018136926 0.1339875 -0.20148005 -0.28368306 0.5716101 -0.15382157 0.021192683
0.28773794 0.2074461 0.116833806 0.078857236 -0.42630842 0.23240712 -0.12912053 -0.1937716
0.054967377 -0.15159377 0.09015899 0.10040473 0.21496429 -0.034423575 0.0972169 -0.13874654
0.3770624 0.47852004 -0.08133192 0.60062647 0.135791 -0.26568803 -0.28128812 0.379953
0.17640555 0.11476807 0.17484315 0.044143546 -0.09240688 0.09171966 -0.049603492 0.10171421
0.07062495 0.402895 -0.10492105 0.1971985 0.13559783 -0.2622467 -0.032422077 0.14713071
0.0029881068 -0.117129974 0.11388797 -0.2581472 0.06608766 -0.08622346 0.03476165 0.025181945
0.3191728 0.034417216 -0.13462871 0.043862563 0.059077572 -0.21140511 -0.06396784 0.19309631
-0.008371734 -0.10951837 0.25014862 -0.078578345 -0.05428725 0.24996117 -0.27797332 0.08444655
0.5760564 0.14862525 0.17955638 0.2141417 0.1118558 0.13544117 -0.10262856 -0.13214816
0.24524122 -0.39022142 0.11978486 0.045770645 0.1699518 -0.08051547 0.015822763 0.19682716
0.061080042 0.26766863 -0.09723683 -0.04566783 0.15677841 0.109982856 -0.11017562 -0.04797509
0.17319402 0.17368244 0.0934889 0.021457853 -0.26018837 0.120798886 0.22494365 0.147728
-0.11373901 -0.06987735 -0.10319492 0.13930342 0.16697097 0.33919784 -0.0005670798 0.06125229
0.8210673 -0.16086599 0.3445286 -0.20492277 0.07193981 0.07933945 0.08461634 0.20644301

fc_out.bias f4 [4]
00000000: 2608 403e 76b7 2f3e 809d 283e 9cb2 5c3e
0.18753108 0.17159829 0.16466331 0.21552509
