p1_navigation/train_files/checkpoint.pth (torch_old, 28426 bytes, 6 tensors)

fc1.weight f4 [64, 37]
000000 f2 93 71 bd c5 ac e8 bc 42 56 85 bd 96 3e d1 bb
       -0.058978982 -0.028402695 -0.06510593 -0.0063856347
000010 5e 9c 82 be fb 01 96 be 5a d8 86 3d 4b c9 86 3e
       -0.25509924 -0.29298386 0.065842345 0.2632545
000020 c1 f4 50 bc 14 1b 05 3e 07 c2 a0 bd 2c 62 0d 3d
       -0.012753666 0.1299861 -0.07849508 0.034517452
000030 9a 22 98 bd 1c 84 35 3c 6e fa 4a 3e fe 3d 06 bd
       -0.07428475 0.011078861 0.19822094 -0.032773964
000040 0a bf 0a 3d e0 4a 60 3e 6e e5 ef bd fa 04 73 be
       0.033873595 0.21903563 -0.11713682 -0.23732367
000050 08 0b 27 bd 12 ea 45 3e 78 09 98 bd 70 5f 9a bd
       -0.040782005 0.19327572 -0.07423681 -0.075377345
000060 bb 80 07 bf 29 82 7b bc 3d a8 f6 3c 1d a3 8c ba
       -0.529308 -0.015350857 0.03010952 -0.0010729764
000070 9b ec ac bc 4d 62 a8 bd db 3f ac 3c b2 5f 08 3e
       -0.021108916 -0.082218744 0.021026542 0.13317755
000080 7d 0e 0f 3e 90 8a 1d bd cd ce da 3a d2 c3 72 3d
       0.1397037 -0.03846222 0.0016693712 0.05926878
000090 c2 92 77 3d 5d aa d8 3a 4c 53 b9 3d c2 b0 2a be
       0.060442694 0.0016530264 0.09049091 -0.1666899
0000a0 20 ba 36 be 19 9f fc be 12 05 43 bf 6c f6 a0 3d
       -0.17844439 -0.49340132 -0.7617961 0.07859501
0000b0 21 75 bc 3e 0a 4f c8 bd 7b be db be 24 3f af bd
       0.36808112 -0.097807005 -0.42918763 -0.08556965
0000c0 f3 ec c1 3c 78 bc 17 be 69 ef c2 3d c7 05 19 3d
       0.023672557 -0.14817989 0.0951832 0.037359025
0000d0 d3 9e f5 be c5 b1 c1 3d bf d7 3d 3e 43 1d e3 be
       -0.47972736 0.09457735 0.18539332 -0.44358262
0000e0 50 de 41 be be 74 65 be 79 18 f1 bb f4 97 3c 3e
       -0.18932462 -0.22407815 -0.0073576537 0.1841734
0000f0 5c 09 ca 3b e2 3a 6e 3e 42 f5 84 be 0b 46 8e 3e
       0.0061656665 0.2326465 -0.25968367 0.27787814
000100 74 25 04 ba 55 90 a5 be ac 5c 91 3d f2 ec ce bd
       -0.00050409813 -0.3233668 0.07097754 -0.101037875
000110 d8 29 b2 3c 90 f3 c7 3d f7 f8 87 bd a8 0d 75 3d
       0.021748468 0.09763253 -0.06639283 0.059827477
000120 65 89 9d 3b f6 2d 33 bb 9b a3 e7 3e ef e4 8a be
       0.0048076385 -0.0027340627 0.4524201 -0.27127787
000130 bc 72 29 be db 3a 20 bf 74 01 fa bf 49 e5 04 be
       -0.16547674 -0.62589806 -1.9531693 -0.1297809
000140 e0 00 57 bd 55 50 83 3d 31 33 92 3d 71 d0 10 3e
       -0.05249107 0.064118065 0.0713867 0.14142014
000150 51 68 08 bd e6 76 4d bd f7 6d 5a bd 71 c2 62 3c
       -0.03330261 -0.05016222 -0.053327527 0.013840304
000160 e1 11 58 bd 1e b2 11 3d e4 ce 4d 3e 88 6b 00 3e
       -0.052751426 0.035570256 0.20098454 0.1254102
000170 fe cc 2d 3e ea 0c ff bd e8 fb 9b 3b c3 1a 49 3e
       0.1697273 -0.12453635 0.004760254 0.19639115
000180 b9 10 97 3d e4 b2 01 3e eb b3 34 be 07 fb 4d bd
       0.073762365 0.12665898 -0.17646758 -0.050288226
000190 d7 44 7a 3d f0 d5 ab 3b 79 b5 f3 3d 6d 6c 14 3e
       0.061100807 0.005244009 0.118998475 0.14494486
0001a0 a4 14 69 bd 75 2f 0b 3d 2e b5 ee 3d ae 60 12 3e
       -0.05690445 0.033980805 0.11655651 0.14294693
0001b0 e7 ff 05 3e a8 09 17 3d 93 d9 9d 3b 66 de 1d be
       0.130859 0.036874443 0.0048171966 -0.1541687
0001c0 ac a2 30 bd 2c 94 e3 3c 7a 7e f0 bc 28 56 4b bd
       -0.043123886 0.027780615 -0.029357184 -0.049642712
0001d0 da b7 8e 3e 99 ba 02 be 85 09 08 bc 08 c5 23 bf
       0.27874643 -0.12766494 -0.008303051 -0.6397252
0001e0 4f e5 fb bf b8 47 2b be 5a e3 c3 bb 3f 64 4a 3e
       -1.9679354 -0.16726577 -0.00597803 0.19764803
0001f0 61 93 65 3b 3c 8e 85 bd 7e ea 58 3d 40 3c 5f 3c
       0.0035030472 -0.0652127 0.052958004 0.013625205
000200 c3 86 3c 3d 70 f5 b5 3d 97 5e 66 3e ad 35 ab 3c
       0.046026956 0.08884704 0.2249702 0.020899618
000210 d3 f2 08 bc d4 bf ad 3d 9e ea 04 3e 6e 9f 51 3d
       -0.008358675 0.08483854 0.12980124 0.051177435
000220 a1 8d 45 3d 1e 67 0c bd 20 2b 3e be 83 0d 8a be
       0.04823077 -0.034278028 -0.18571138 -0.26963434
000230 c1 28 1a bc 16 87 37 bc f5 ab 86 3e 15 73 e1 3d
       -0.009409131 -0.011201641 0.26303068 0.11008278
000240 2b 59 33 bc c6 38 b6 be 12 24 ca bc ae 46 6f 3c
       -0.010946552 -0.3559019 -0.024675403 0.014604254
000250 71 f0 06 bd e4 56 2a 3c ac f6 70 3e 46 67 06 be
       -0.032944147 0.010396693 0.23531598 -0.13125333
000260 30 35 88 3e 25 0d d8 bd af 4c 96 3c cc e3 58 3e
       0.2660308 -0.10549382 0.018347112 0.21180648
000270 41 1f 3d be a2 76 82 3e 00 1f 2e 3e 62 78 3a bd
       -0.18468954 0.25481135 0.17004013 -0.045524962
000280 1a fe 75 bd 83 bf 13 3d 3e b1 a5 38 a5 64 bb 3c
       -0.060056783 0.03607131 7.900827e-05 0.02287514
000290 d5 d7 57 be fb c2 7c be ff 57 95 3e ae ab 1d be
       -0.21078427 -0.24683754 0.29168698 -0.15397522
0002a0 18 da c3 bd cc e9 55 3c 51 31 f5 bc b2 83 20 be
       -0.095630825 0.01305623 -0.029930742 -0.15675238
0002b0 61 60 f9 bd 11 c4 3a 3e f8 82 0c bc 77 87 92 bc
       -0.12176586 0.18238856 -0.008576147 -0.01788686
0002c0 33 f8 f6 be 9c 27 81 bd aa d6 a4 bc 01 d4 81 3d
       -0.48236236 -0.06306383 -0.020121891 0.06339265
0002d0 04 a7 ee bd 58 43 1a 3d cb 12 9e be c5 57 a4 bd
       -0.116529495 0.03766188 -0.30873713 -0.08024553
0002e0 0f e3 f5 bc 9f c0 7e 3d 85 00 0b 3d 61 17 62 3d
       -0.030015497 0.062195417 0.033936042 0.055198077
0002f0 17 1f 25 3d 54 c4 27 bd 94 b6 ef bc 75 7a b9 bd
       0.040312853 -0.040958717 -0.029261865 -0.0905656
000300 c9 f9 99 3c 77 c8 d9 3d 4f 73 89 3d 3d 63 78 bd
       0.018795865 0.10633939 0.067114465 -0.060641516
000310 72 91 9e 3c f6 14 b4 3d ef 64 0d 3e ed cf 56 3e
       0.019356463 0.087930605 0.13808034 0.20977755
000320 c5 e6 94 bd 85 c7 a6 bd 92 a1 8f bd d0 38 82 3d
       -0.07270578 -0.08143524 -0.07013239 0.063584924
000330 0d 35 e5 3d 05 6c c4 3e 79 4f 8c be d3 6f 4d be
       0.11191759 0.38363662 -0.27404383 -0.20062189
000340 c8 35 fe be 90 10 cd bf dc 86 eb 3d c5 a7 f7 3d
       -0.49650407 -1.602068 0.11500332 0.120925464
000350 98 59 8c bc 15 2f 31 bd ea 71 48 be 0e 40 35 bc
       -0.017132565 -0.04325779 -0.19574705 -0.011062635
000360 d1 8e 97 3d 64 ef d7 bc 1a 03 0d 3e 98 0a 20 3e
       0.07400287 -0.026359268 0.13770714 0.15629041
000370 db 9c a0 3c 13 9b ff 3b 50 55 54 bd 8c 95 48 bd
       0.019606045 0.0078004687 -0.051839173 -0.048970744
000380 7c 67 84 bd b0 8d 35 bc b7 3e 73 3d 09 51 c0 3d
       -0.064650506 -0.011081144 0.05938598 0.09390456
000390 88 a6 2e 3d 2a 67 2a 3d 87 91 41 3e 2d 70 e7 3d
       0.042639285 0.04160229 0.1890317 0.11300693
0003a0 6d c2 9b 3d 85 03 8c 3b 45 29 84 bc d2 9c 05 bd
       0.07605443 0.0042728805 -0.01613296 -0.03262026
0003b0 b4 58 02 be 46 64 b8 3d 9a 89 19 3e 2c df c8 3d
       -0.1272915 0.09003501 0.14993897 0.09808192
0003c0 94 bb a6 3d 0d d1 6f bc 14 b7 e1 3d b4 fe d2 3d
       0.081412464 -0.014637244 0.110212475 0.10302487
0003d0 bf 6f 0a bc 67 29 83 3d 02 34 c3 bc 00 52 d8 3e
       -0.008449494 0.06404381 -0.02382851 0.4225006
0003e0 51 65 ea be 9c b2 e1 be a1 86 05 bf ed 40 f0 bf
       -0.45780423 -0.4408158 -0.5215855 -1.8769814
0003f0 d8 9b 0a 3e 55 ec 8a 3d 50 6a b4 3d 7e 0f 17 3e
       0.13536012 0.06783358 0.0880934 0.14752004

fc1.bias f4 [64]
000000 36 1a 58 be 55 ac c3 3d 92 23 2c bd b2 04 3e bc
       -0.21103749 0.09554354 -0.04202611 -0.011597799
000010 e2 80 5e bd 78 87 43 3d b3 d8 86 3d 56 9d dd bd
       -0.05432213 0.047736615 0.06584301 -0.10821025
000020 ae 4b 7f 3d 93 8b da bd 48 83 99 3e 9f 4d 54 bd
       0.062328033 -0.10671153 0.29982972 -0.051831838
000030 ed 9d 84 bd e8 22 1f bc 27 7f 91 3d 6d 04 db bd
       -0.064754345 -0.009712912 0.071043305 -0.106942035
000040 88 ac ea 3d b4 40 8f 3c ed 23 38 bd 0c f3 0c 3e
       0.11458689 0.017486908 -0.044956136 0.1376459
000050 30 27 27 3e ae 72 5e be 08 e3 cf 3d 75 e4 2a 3e
       0.16323543 -0.21723434 0.10150725 0.16688712
000060 c1 1e cb 3c 77 5b 06 bd f2 fe c8 3d 6a ce de 3c
       0.024794938 -0.03280207 0.09814252 0.027198035
000070 ad 93 38 bc 3b 52 a1 bd ef 96 ca bc 72 17 92 bb
       -0.011265677 -0.07877012 -0.024730174 -0.0044583613
000080 87 ca c1 bd 40 52 37 bd 1d e4 07 bc 76 75 bf 3d
       -0.09462457 -0.044756174 -0.008294133 0.09348576
000090 66 45 34 be 07 56 0c 3e 3c a4 49 bd 44 5a 0c 3d
       -0.17604598 0.13704692 -0.04922889 0.03426577
0000a0 67 c8 32 bd a0 ae 48 3c 6b b6 4d 3e 21 b5 59 3e
       -0.04364815 0.012248665 0.20089118 0.21260501
0000b0 db 5e e0 bd 11 eb ac bd 52 a7 a3 3c 0c 5e 90 3d
       -0.10955592 -0.08443273 0.019977245 0.07049188
0000c0 74 fe 18 be 09 75 4f 3e b5 7e 3a 3e 51 e4 a5 3d
       -0.14940816 0.20259489 0.18212397 0.081001885
0000d0 a8 e5 92 3d 18 08 6a be 1b 7b 9d bd e3 09 38 bd
       0.0717271 -0.2285465 -0.07689496 -0.044931304
0000e0 e4 5a 03 3e ae d2 2a bd 93 87 2f bd 0d f6 49 be
       0.12827641 -0.041704826 -0.042853903 -0.19722767
0000f0 99 28 45 3e 50 94 ff 3d b7 4f 4e bd 35 ee 16 be
       0.19253768 0.1247946 -0.05036899 -0.14739306

fc2.weight f4 [64, 64]
000000 bf bb 28 bd ee 8d 29 bf fa c2 6f bd 4b 79 01 bc
       -0.041194674 -0.6623219 -0.058535554 -0.007902454
000010 c0 9c 69 3d 3a ea 01 3e d2 64 04 3f 55 8d 17 be
       0.057034254 0.12687007 0.5171634 -0.14800008
000020 a7 6f 4c 3d 79 1d 34 bd 02 dd df bd df 98 87 bd
       0.049911167 -0.04397342 -0.10930826 -0.06620955
000030 a5 f4 c6 be 8f 12 a4 3d af ab 30 3c 9e 36 34 bd
       -0.38858524 0.08011352 0.01078312 -0.0439974
000040 bf 4f 84 be 45 0f 01 3d 87 4c 1f 3d 4d f8 66 bd
       -0.2584209 0.031508703 0.03889134 -0.05638914
000050 f6 54 c5 be 7a 1f e8 bd 6b 85 4b 3e 98 fb ba 3d
       -0.38541383 -0.11334129 0.19875114 0.09130019
000060 14 0c a2 3d 43 53 ae 3d cb d6 ac 3e 12 fa 08 be
       0.0791246 0.08511975 0.33757624 -0.13376644
000070 e5 49 76 bd 78 18 2a bd 21 1f f4 3c 7f cc 94 bb
       -0.060129065 -0.04152724 0.0298 -0.0045409794
000080 e4 32 64 3d fd 7f b3 bd 20 30 80 bd 87 96 57 be
       0.055712596 -0.08764646 -0.06259179 -0.21053515
000090 14 d9 a6 bc 91 7a db 3d b3 c9 70 3e e8 21 8e 3d
       -0.020367183 0.10716737 0.23514442 0.06940061
0000a0 14 f0 a5 3d 86 f0 aa 3d f5 7d 22 be 65 cb 56 bb
       0.08102432 0.083466575 -0.15868361 -0.0032775041
0000b0 6d 08 23 be 99 d2 8b bc 80 69 2b bf 12 85 51 3d
       -0.15921183 -0.017068194 -0.66957855 0.051152296
0000c0 a2 ed 53 3d a3 49 15 3d a6 07 f8 3e fe 97 31 3e
       0.051740296 0.03644718 0.48443335 0.17343137
0000d0 91 7d 31 be 17 e0 95 3d f5 fe e3 3c 75 74 b1 3d
       -0.17333056 0.07318132 0.027831534 0.086647905
0000e0 9a 77 1d 3e a5 e8 25 bd 73 ce a2 3d 82 e9 00 3e
       0.15377656 -0.04050507 0.07949533 0.12589076
0000f0 c2 40 47 3b d2 28 91 3e 41 25 26 be 5e 50 84 bd
       0.003040359 0.28351456 -0.16225149 -0.06460641
000100 bc 96 3e bd e7 6a 90 3c 8a 4c 84 bd ec dc 85 3d
       -0.04653047 0.0176291 -0.06459911 0.06536278
000110 c7 bb ee bd d0 53 8a 3d 86 d9 bb bd c8 56 9d 3e
       -0.116569094 0.06754267 -0.09172349 0.3073027
000120 1c 6e 87 3e cb 9e b3 3d 1a d6 bc 3d 5b 41 3c be
       0.26451194 0.08770522 0.09220524 -0.18384306
000130 08 84 73 3e 35 ed f0 3b ac 93 cb 3c 30 b5 b9 bd
       0.23780835 0.007352496 0.024850689 -0.09067762
000140 4a 2a b8 bd 2e 5e 61 bd b7 73 f4 bd 92 10 64 bb
       -0.08992441 -0.055021457 -0.11936133 -0.0034799916
000150 1a 95 9e 3e 8d 63 45 be e9 fc c0 bd 85 23 89 bd
       0.3097313 -0.19276257 -0.09423239 -0.06696228
000160 11 64 26 3e a5 c1 c5 be e1 dd d5 bc 9e 75 96 be
       0.1624911 -0.38624302 -0.026106777 -0.2938661
000170 fd d3 49 be fb 86 80 bd 47 2f b9 3d 16 89 dd 3d
       -0.19709773 -0.062757455 0.090422206 0.10817163
000180 6b 48 46 be e9 e9 d2 3d 37 37 0c bd d6 2d 19 3e
       -0.19363563 0.10298521 -0.034232344 0.14958891
000190 6e f0 c0 bd e6 da 6c be 77 98 6d 3e b2 a1 76 bd
       -0.09420858 -0.23130378 0.23202692 -0.0602128
0001a0 54 fa 04 3e f9 ed 25 bd 86 16 12 3e 08 c3 5d be
       0.12986118 -0.04051015 0.14266405 -0.2165643
0001b0 92 af 11 bd 80 be 97 bd a2 b8 dd 3e 70 36 11 be
       -0.035567828 -0.07409382 0.43304926 -0.14180923
0001c0 8b e1 be 3d d3 b3 fe bd ca 8c a0 bd 46 d6 bc bd
       0.09320363 -0.124366425 -0.078393534 -0.09220557
0001d0 c1 f6 b6 3d 7c 02 6a be 7b 0c 64 bd 43 08 1c bd
       0.08933783 -0.2285251 -0.055675965 -0.038093816
0001e0 af 91 b4 3e 8b 8d 85 bc 93 9e 0f bd 14 a5 a8 bc
       0.35267398 -0.016302845 -0.035063338 -0.020586528
0001f0 ab 68 29 3e b5 2d a8 be 9f 04 d1 3d c3 e4 79 be
       0.16543834 -0.32847372 0.102059595 -0.24403672
000200 be 83 c7 be e6 b7 46 bc 52 02 8b 3e 62 4e 1b bd
       -0.389677 -0.012128806 0.27150208 -0.03791655
000210 61 1f 3e 3e 6a f7 0d 3e a6 ae 4a bd cf 4e fb 3d
       0.18566658 0.13863912 -0.049482964 0.12270891
000220 1b 01 da 3c 79 be 24 bc fc c0 f3 bd fb 14 eb 3d
       0.026611855 -0.010055178 -0.11902043 0.11478611
000230 25 1b 91 3c bb f5 48 bd 4b 81 ac ba a9 68 a2 3a
       0.017713139 -0.04906247 -0.0013161091 0.001239081
000240 b7 1c ab be e3 2f b7 bd 8c 7c 01 be 87 46 b0 bd
       -0.33420345 -0.089446805 -0.12645167 -0.08607202
000250 15 29 5f 3e 60 b0 ff bc a9 58 45 be 79 31 56 3b
       0.21793015 -0.031212032 -0.19272102 0.0032683297
000260 5e a7 8b bd 18 52 67 3e 0d 23 61 bd 47 30 0e 3d
       -0.06819032 0.2258991 -0.054965068 0.03471401
000270 62 ef 39 be ee 9c 9e bd b0 ae 90 be a7 11 42 3e
       -0.18157724 -0.07744776 -0.28258276 0.18952046
000280 44 3a 15 3e ec 9f f8 3c 6c 44 12 be 6b 1c 84 be
       0.14573008 0.030349694 -0.14283913 -0.2580293
000290 95 85 85 3e a6 f2 0a 3d d0 ed 3d bd bf f9 5c bc
       0.26078478 0.033922814 -0.046369374 -0.0134872785
0002a0 0a 3c 8e 3c 48 93 17 3e be d9 c5 3d e7 bd a2 be
       0.017362613 0.14802277 0.09660672 -0.3178551
0002b0 50 16 c1 3d f4 a0 cb 3d dc 5b 10 bd 2b b6 e6 be
       0.09428084 0.09942809 -0.035243854 -0.45060858
0002c0 13 61 1b bd 16 4c e6 bd f0 2c 95 bd 87 91 11 3e
       -0.037934374 -0.11244981 -0.07283962 0.1421567
0002d0 a8 63 38 3e 73 98 18 be f9 1f 3e bc fd 7b 80 bd
       0.18006766 -0.14901905 -0.011604303 -0.06273649
0002e0 b6 0b 43 3e b5 51 7e 3e 79 30 5a bd 15 89 3a be
       0.19047436 0.24835856 -0.053268883 -0.18216355
0002f0 4a ea c0 3d e0 89 a9 3d 0f bd 58 3b 62 1d 10 be
       0.09419687 0.08278251 0.0033071672 -0.14073709
000300 98 e2 1d bd 27 60 07 3a ba 4a 90 bd 52 9a 6e 3c
       -0.038546175 0.0005164169 -0.07045503 0.01456316
000310 0e c1 43 3d dc b3 05 3e cf b9 c8 3d 3e 66 5e 3e
       0.047791533 0.13056892 0.09801065 0.2171869
000320 2c 35 1d 3e 2f 29 38 3d a4 34 a9 3d fb f0 a6 3d
       0.15352315 0.04496115 0.082619935 0.08151432
000330 c4 98 a0 3d c8 da c2 3d d5 27 34 be 98 86 f2 3d
       0.07841638 0.095143855 -0.1759332 0.11842078
000340 ae 8f be bc ca 9f 92 3d e7 bb 93 3d 3d a6 1a 3e
       -0.023261871 0.071593836 0.07213574 0.15102477
000350 23 7f ac 3d e9 c8 ec 3c 89 c5 52 3d 7a 66 db 3d
       0.08422687 0.028904395 0.051457915 0.10712905
000360 60 53 9e bd 4b a6 34 bc 5d 04 70 bd bb 08 4b 3d
       -0.07730746 -0.011025975 -0.05859791 0.049568873
000370 d2 2f b2 bd d5 f0 3c 3e 64 e3 7f 3d 47 6d cc 3d
       -0.08700527 0.18451245 0.062472716 0.099817805
000380 3c 8b d9 3d 7b 8e 81 bd 0f 4b 96 3c 72 ba 9f 3b
       0.1062226 -0.06326004 0.018346338 0.004874521
000390 e9 ff 0d 3c 2e 12 9c 3d 3c c3 ac 3d f4 a6 c9 bb
       0.008666971 0.07620655 0.084356755 -0.0061539356
0003a0 38 bb 55 3c 37 2e 93 3d b4 1b 86 3d 7c 77 07 3e
       0.013045125 0.07186549 0.06548253 0.13229173
0003b0 cd 22 38 bb 07 af a8 bd 99 7f 60 3d 1b 38 ac 3d
       -0.0028096915 -0.08236509 0.054809187 0.08409139
0003c0 24 9d 32 3c 07 26 73 bc 0c f2 9b bd 6c 73 db bd
       0.010901723 -0.014840609 -0.07614526 -0.10715374
0003d0 bc f4 16 3e 15 8c c8 bb 6d 01 1d be fb fc 64 3c
       0.14741796 -0.0061202147 -0.15332575 0.013976331
0003e0 31 7b 3d 3e 78 6d db 3d 60 1b e0 3c c4 02 d9 bd
       0.18504025 0.10714239 0.027356803 -0.105962306
0003f0 cf de 04 3e ca 5b 06 bd 21 fb f1 3c d1 4e e8 bd
       0.1297562 -0.03280238 0.029538693 -0.11343158

fc2.bias f4 [64]
000000 b1 5d ed 3c bb 77 16 3e 41 48 02 3e a1 56 f1 3e
       0.02897534 0.14694111 0.12722875 0.47136405
000010 0f 22 c4 bd 36 97 81 bd ba 73 aa b9 50 30 07 3e
       -0.09576809 -0.06327669 -0.0003251115 0.13202024
000020 32 b3 a6 bd c5 c6 38 bd cf 98 0c be 70 73 62 be
       -0.081396475 -0.045111436 -0.13730167 -0.22114348
000030 ad d3 a1 3d e4 d9 30 3e 36 2c e5 bd 88 e5 0b be
       0.07901702 0.17270619 -0.11190073 -0.13661778
000040 6f ce ed 3d 26 a4 b4 3e d7 95 5e bd e3 a4 4c bc
       0.1161164 0.35281485 -0.054342117 -0.012490484
000050 83 72 bc 3d 96 54 c5 3e a6 b9 66 be dd 00 38 3d
       0.09201529 0.38541096 -0.22531757 0.0449227
000060 db 60 85 3d b6 5a 3a be 38 ba 88 3e 1a 5b 2b 3e
       0.06512614 -0.18198666 0.26704574 0.16733971
000070 25 e5 84 3e 27 d5 23 be c9 88 81 3e 55 67 11 be
       0.25956073 -0.1599928 0.2529967 -0.14199574
000080 ce 2b 63 bd de a5 79 3d f2 a8 ee 3d a2 8c c1 3b
       -0.055461697 0.0609492 0.116533175 0.0059066573
000090 a1 4d 15 3f fe 6b 10 be 78 c8 aa bd 0c 20 7c be
       0.5832158 -0.14103696 -0.08339018 -0.246216
0000a0 15 c8 08 3d 78 75 f5 3e b9 66 dd 3e 03 f1 99 bd
       0.033393938 0.47941184 0.43242434 -0.075166725
0000b0 c4 c3 ad 3d f6 11 20 3e da 93 e9 3d 82 ee df 3e
       0.08484605 0.15631852 0.114051536 0.43736655
0000c0 93 64 c9 bd bd 01 23 bd 1c 24 a7 bb f6 13 74 3d
       -0.09833636 -0.03979658 -0.00510074 0.05958935
0000d0 e0 ff f1 3e e7 19 de bd a1 91 06 3e ea d3 c2 3e
       0.4726553 -0.10844784 0.1314149 0.38052303
0000e0 f1 bd ad bd 59 0a ec bd 98 49 5f 3e de 12 bc bd
       -0.08483494 -0.11525411 0.21805418 -0.09183286
0000f0 69 a1 4f 3e 57 b8 36 be 0c 9b c9 3e 4f c6 b8 3c
       0.20276417 -0.17843758 0.39376104 0.022555498

fc_out.weight f4 [4, 64]
000000 98 bb 50 3e 1a f1 2c 3e 2c 78 04 3e ea 26 0e 3e
       0.20384061 0.16888848 0.12936467 0.13882032
000010 d7 52 00 be 20 02 86 3d 1e 62 88 be 37 fe ae 3e
       -0.12531601 0.06543374 -0.26637357 0.34178326
000020 00 2a bf be ec da 5b be 3e 29 b2 bd dc 85 2b be
       -0.3733673 -0.21470231 -0.086992726 -0.16750282
000030 a9 22 89 bd 79 bf 46 3e f0 d0 25 bf 2e 8a ac 3d
       -0.06696064 0.19408979 -0.6477194 0.08424793
000040 b1 17 ae 3e f3 55 f6 3d a6 fc 9e 3e 9b bb 95 3d
       0.3400245 0.12028112 0.3105213 0.073111735
000050 2a 58 a5 bc fc 1c 08 3e e5 34 b3 bd 7c a4 90 3d
       -0.020183641 0.13292307 -0.08750323 0.07062623
000060 db 98 81 3d 6d 3c 44 be f0 e7 b3 3e c4 1c 07 3e
       0.06327983 -0.19163676 0.35137892 0.13194567
000070 bd 18 3f 3e 90 54 73 be eb 7f 1d 3e e7 cc f2 bb
       0.1866178 -0.23762727 0.15380828 -0.00740968
000080 07 d3 95 3e 96 6f 06 3f cb e8 05 3e 5e bd 07 3e
       0.29262564 0.52514017 0.13077085 0.13255832
000090 ef 77 26 3e 30 da 3d 3d 30 66 06 3d 60 86 77 be
       0.16256689 0.046350658 0.032812297 -0.24172354
0000a0 c0 56 15 3e 45 6b 3f 3e a1 1d 57 3e 36 b2 e4 bd
       0.14583874 0.18693264 0.21007396 -0.111668035
0000b0 11 d8 97 be 5e 74 03 3e 58 03 a2 3e 25 03 20 3e
       -0.29657033 0.1283736 0.31643176 0.156262
0000c0 ac 09 f5 3d 75 4e ba 3c 8e 0d 38 3e 74 6e 77 3c
       0.119647354 0.02274249 0.1797392 0.015102018
0000d0 81 72 25 3e 97 71 d2 3e 15 5f 07 3e 96 9d 19 3e
       0.16156961 0.41102287 0.13219865 0.1500152
0000e0 17 6c ef 3b 07 d5 83 be 98 d0 3d 3e fd 39 8c be
       0.0073065865 -0.25748464 0.18536603 -0.27387992
0000f0 63 70 c4 3c ee e8 7a be d3 01 32 3e 8b 47 6e 3e
       0.023979371 -0.24502918 0.17383508 0.23269479
000100 12 3b 50 3e 73 09 0a 3e 52 e2 d2 3d 9d e3 31 3e
       0.20335034 0.13480167 0.102970734 0.17371984
000110 cc ea 08 be a4 08 1a be 37 c7 a2 be c4 94 a8 3e
       -0.13370818 -0.15042359 -0.31792614 0.32926
000120 4c 20 02 be 21 a7 9b 3e 89 89 58 bd d0 5b c1 bd
       -0.12707633 0.30400947 -0.05286554 -0.0944134
000130 b4 c5 18 be ba 2c a7 3e 64 91 b8 bd a0 ba a2 3e
       -0.14919168 0.3265131 -0.09012106 0.3178301
000140 a5 45 04 3f 6a b3 21 3e c6 31 d7 3c d0 49 6a 3c
       0.5166877 0.15791097 0.026268851 0.014299825
000150 ee 62 76 be a9 6e cf 3d fa 0b 04 be 68 78 38 3e
       -0.24061176 0.101285286 -0.12895194 0.18014681
000160 2b d0 8b 3d 8f 81 82 be f2 72 9f 3e 15 b3 d3 3d
       0.06826814 -0.2548947 0.31142384 0.103368916
000170 7e 6f 4e 3e aa 30 4b be 9c 53 9e 3d cf e6 2a 3d
       0.20159718 -0.19842783 0.07730791 0.041724022
000180 88 1f cd 3e 6a 59 19 3f 84 4c ad bc e0 07 83 3e
       0.4006312 0.5990206 -0.02115465 0.25591946
000190 28 91 62 3e 24 7b 89 bd 35 bc c5 bd e7 1f 31 be
       0.22125685 -0.0671294 -0.09655038 -0.17297326
0001a0 b9 e9 5a 3e 10 16 16 3e 6a d6 72 3e 55 3a 39 3e
       0.2137822 0.14656854 0.23714605 0.18088658
0001b0 fd a6 2f ba ba 60 5d 3e 4a 0a 9b 3e e6 bc 41 3e
       -0.00067006034 0.2161893 0.30281287 0.18919715
0001c0 0d 19 8d 3e f5 69 3e 3e 19 18 d6 3d d9 f6 10 be
       0.27558175 0.18595107 0.10453815 -0.14156665
0001d0 f9 49 dd 3d 38 da dd 3e 64 68 29 3e c6 c6 86 3d
       0.10805125 0.4333055 0.16543728 0.06580882
0001e0 e5 3b 38 3e 8e 8e 1a be 93 48 72 3e 8a 63 3c be
       0.17991598 -0.15093443 0.23660497 -0.18397346
0001f0 3d cb 94 3d 58 4c 00 be d0 86 e8 3d da 9f 1f 3e
       0.07265327 -0.12529123 0.113538384 0.15588322
000200 9a 02 47 3e 46 a6 43 3e ef de 6d 3d 3a 68 0a 3e
       0.19434586 0.19106397 0.058073934 0.13516322
000210 6e 4c 89 bd c2 a0 13 bf 7a a0 4e bd 89 96 73 3e
       -0.06704031 -0.5766717 -0.05044601 0.23787893
000220 ab 43 ea be 95 ed 3a 3d dc 00 24 3e 57 ca 4c be
       -0.45754752 0.045636732 0.16015953 -0.19999062
000230 7a 3a 09 bf c4 e2 01 3f 06 31 8d be 51 9a 88 3e
       -0.53604853 0.5073664 -0.27576464 0.26680234
000240 c1 1f 93 3e e5 47 7a 3e 01 59 15 be 1c 3d a8 3c
       0.28735164 0.24441488 -0.14584734 0.020536952
000250 8d 46 b5 be 2c ca 8d 3e ad 7b 41 be e0 31 eb 3d
       -0.35405388 0.27693307 -0.18894835 0.11484122
000260 d4 ea 2c 3d 89 82 a0 bd b7 27 f4 3d 6a bf 50 3d
       0.042216137 -0.078373976 0.119216375 0.050963797
000270 7d ca 3d 3e f6 96 bf bc 7f 85 08 3e ea c3 d6 bd
       0.18534274 -0.023387413 0.13332175 -0.104865864
000280 a1 68 d8 3e ab 60 0a 3f 32 2b 31 bd 8a 3c 0c 3f
       0.42267326 0.54053754 -0.043254085 0.54779875
000290 42 8b 29 3e 92 a3 ca bd 3d b3 ba bd 4f 45 10 be
       0.16557029 -0.0989448 -0.09116218 -0.14088939
0002a0 94 68 52 3e f4 b1 0d 3e 10 9e 5d 3e 26 25 58 3d
       0.20547706 0.13837415 0.21642327 0.052769803
0002b0 9e 9b 46 be 62 d1 30 3e a1 95 a7 3e ce f9 1e 3e
       -0.19395301 0.17267373 0.32731345 0.1552498
0002c0 7a 7a 9f 3e 04 8e 9b 3e b3 0e 80 3d e6 8c 7e 3d
       0.3114813 0.30381787 0.06252804 0.06214609
0002d0 bf e8 28 3e 39 13 47 bd 08 99 37 be 7e c5 38 3e
       0.16495036 -0.048602317 -0.1792947 0.18044087
0002e0 d9 25 5b 3d 1b 3d 2c be dd 90 dd bc 6b 6d c9 be
       0.05350289 -0.16820185 -0.027046615 -0.39341292
0002f0 b8 7a bd 3d 4a 62 8b be 58 56 96 3d 52 82 0b bd
       0.09251922 -0.27223426 0.073406875 -0.03405983
000300 fe ed 7b 3e 8c 41 47 3c df 04 a0 bd ee 37 90 3d
       0.24602506 0.012161624 -0.07813429 0.07041918
000310 99 27 29 be b5 d6 88 be 7f 2d af be a6 7a 03 3e
       -0.16519012 -0.26726308 -0.34214398 0.12839755
000320 ef 6b 8e 3d 1b ad 94 be 77 b0 a8 3e 4c a7 3c be
       0.069541804 -0.2903832 0.32947132 -0.18423194
000330 78 ef 6a 3d 63 fe c6 3c e9 89 b8 be 9f e8 0c 3f
       0.05735728 0.024291223 -0.36042717 0.5504245
000340 45 9e bb 3e e2 19 27 3e 14 c9 7c 3e ab f4 61 3e
       0.36644188 0.16318467 0.2468608 0.2206599
000350 7e 56 2d 3d 74 d0 28 3e 11 14 08 bd ad 31 3c 3e
       0.042318814 0.16485769 -0.03322226 0.18378325
000360 d0 99 6e 3e 87 7f 9f be d9 0f 24 3e a7 64 12 3d
       0.23300862 -0.31151983 0.1602167 0.03574052
000370 14 2a 0d 3e f1 f1 28 3d 46 e0 49 3d e7 5c 60 3e
       0.13785583 0.04124636 0.04928615 0.2191044
000380 ea dd 4e bd 7b 18 c9 3e a5 05 25 be 73 c6 60 be
       -0.050504602 0.3927649 -0.16115434 -0.21950702
000390 5e fd 56 3e 90 05 4d 3c ba 41 c5 bd bd a4 fc bd
       0.2099509 0.012513533 -0.09631677 -0.12336109
0003a0 39 8b 01 3e 5d 31 5d 3e 45 10 1b 3e ec bf 29 3e
       0.12650765 0.21600862 0.15142925 0.16577119
0003b0 19 64 8c be d7 e7 26 3e 17 13 b7 3e 60 5a 31 3e
       -0.27420118 0.16299377 0.35756752 0.17319632
0003c0 57 f6 09 bf af 37 e9 3d 18 a8 71 be fb d4 53 bd
       -0.5389151 0.11387574 -0.23599279 -0.051716786
0003d0 83 44 47 3e 5d 08 ef 3e f4 72 90 3c a5 8a ee 3d
       0.19459729 0.46686068 0.017632939 0.11647538
0003e0 00 61 8d 3e 3f 05 2c be 90 e8 91 3e 1f 64 0f bd
       0.27613068 -0.16798876 0.28497744 -0.035007592
0003f0 0d ad 1e 3e da 59 2f 3e 35 82 f0 3d fb c1 a3 3e
       0.15495701 0.1712412 0.11743585 0.31983933

fc_out.bias f4 [4]
000000 ca fd a8 3e 56 10 98 3e d1 53 93 3e 78 40 a3 3e
       0.33006126 0.29699963 0.28774884 0.31885123
